task: ResVAE-latentdim128
device: cuda
batch_size: 128
learning_rate: 0.001
num_epochs: 500
latent_dim: 128
layer_list: [2, 2, 2, 2]
input_dim: 4
sigma: 0.001
model: ResVAE(
  (encoder): Encoder(
    (conv_1): Conv2d(4, 8, kernel_size=(3, 3), stride=(2, 2), padding=(1, 1), bias=False)
    (norm_layer_1): BatchNorm2d(8, eps=1e-05, momentum=0.1, affine=True, track_running_stats=True)
    (relu): LeakyReLU(negative_slope=0.01, inplace=True)
    (layer_1): Sequential(
      (0): EncoderBottleneckBlock(
        (conv_1): Conv2d(8, 8, kernel_size=(1, 1), stride=(1, 1), bias=False)
        (norm_1): BatchNorm2d(8, eps=1e-05, momentum=0.1, affine=True, track_running_stats=True)
        (conv_2): Conv2d(8, 8, kernel_size=(5, 5), stride=(2, 2), padding=(2, 2), bias=False)
        (norm_2): BatchNorm2d(8, eps=1e-05, momentum=0.1, affine=True, track_running_stats=True)
        (conv_3): Conv2d(8, 32, kernel_size=(1, 1), stride=(1, 1), bias=False)
        (norm_3): BatchNorm2d(32, eps=1e-05, momentum=0.1, affine=True, track_running_stats=True)
        (relu): LeakyReLU(negative_slope=0.01, inplace=True)
        (downsample): Sequential(
          (0): Conv2d(8, 32, kernel_size=(5, 5), stride=(2, 2), padding=(2, 2), bias=False)
          (1): BatchNorm2d(32, eps=1e-05, momentum=0.1, affine=True, track_running_stats=True)
        )
      )
      (1): EncoderBottleneckBlock(
        (conv_1): Conv2d(32, 8, kernel_size=(1, 1), stride=(1, 1), bias=False)
        (norm_1): BatchNorm2d(8, eps=1e-05, momentum=0.1, affine=True, track_running_stats=True)
        (conv_2): Conv2d(8, 8, kernel_size=(5, 5), stride=(1, 1), padding=(2, 2), bias=False)
        (norm_2): BatchNorm2d(8, eps=1e-05, momentum=0.1, affine=True, track_running_stats=True)
        (conv_3): Conv2d(8, 32, kernel_size=(1, 1), stride=(1, 1), bias=False)
        (norm_3): BatchNorm2d(32, eps=1e-05, momentum=0.1, affine=True, track_running_stats=True)
        (relu): LeakyReLU(negative_slope=0.01, inplace=True)
      )
    )
    (layer_2): Sequential(
      (0): EncoderBottleneckBlock(
        (conv_1): Conv2d(32, 8, kernel_size=(1, 1), stride=(1, 1), bias=False)
        (norm_1): BatchNorm2d(8, eps=1e-05, momentum=0.1, affine=True, track_running_stats=True)
        (conv_2): Conv2d(8, 8, kernel_size=(5, 5), stride=(2, 2), padding=(2, 2), bias=False)
        (norm_2): BatchNorm2d(8, eps=1e-05, momentum=0.1, affine=True, track_running_stats=True)
        (conv_3): Conv2d(8, 32, kernel_size=(1, 1), stride=(1, 1), bias=False)
        (norm_3): BatchNorm2d(32, eps=1e-05, momentum=0.1, affine=True, track_running_stats=True)
        (relu): LeakyReLU(negative_slope=0.01, inplace=True)
        (downsample): Sequential(
          (0): Conv2d(32, 32, kernel_size=(5, 5), stride=(2, 2), padding=(2, 2), bias=False)
          (1): BatchNorm2d(32, eps=1e-05, momentum=0.1, affine=True, track_running_stats=True)
        )
      )
      (1): EncoderBottleneckBlock(
        (conv_1): Conv2d(32, 8, kernel_size=(1, 1), stride=(1, 1), bias=False)
        (norm_1): BatchNorm2d(8, eps=1e-05, momentum=0.1, affine=True, track_running_stats=True)
        (conv_2): Conv2d(8, 8, kernel_size=(5, 5), stride=(1, 1), padding=(2, 2), bias=False)
        (norm_2): BatchNorm2d(8, eps=1e-05, momentum=0.1, affine=True, track_running_stats=True)
        (conv_3): Conv2d(8, 32, kernel_size=(1, 1), stride=(1, 1), bias=False)
        (norm_3): BatchNorm2d(32, eps=1e-05, momentum=0.1, affine=True, track_running_stats=True)
        (relu): LeakyReLU(negative_slope=0.01, inplace=True)
      )
    )
    (layer_3): Sequential(
      (0): EncoderBottleneckBlock(
        (conv_1): Conv2d(32, 16, kernel_size=(1, 1), stride=(1, 1), bias=False)
        (norm_1): BatchNorm2d(16, eps=1e-05, momentum=0.1, affine=True, track_running_stats=True)
        (conv_2): Conv2d(16, 16, kernel_size=(5, 5), stride=(2, 2), padding=(2, 2), bias=False)
        (norm_2): BatchNorm2d(16, eps=1e-05, momentum=0.1, affine=True, track_running_stats=True)
        (conv_3): Conv2d(16, 64, kernel_size=(1, 1), stride=(1, 1), bias=False)
        (norm_3): BatchNorm2d(64, eps=1e-05, momentum=0.1, affine=True, track_running_stats=True)
        (relu): LeakyReLU(negative_slope=0.01, inplace=True)
        (downsample): Sequential(
          (0): Conv2d(32, 64, kernel_size=(5, 5), stride=(2, 2), padding=(2, 2), bias=False)
          (1): BatchNorm2d(64, eps=1e-05, momentum=0.1, affine=True, track_running_stats=True)
        )
      )
      (1): EncoderBottleneckBlock(
        (conv_1): Conv2d(64, 16, kernel_size=(1, 1), stride=(1, 1), bias=False)
        (norm_1): BatchNorm2d(16, eps=1e-05, momentum=0.1, affine=True, track_running_stats=True)
        (conv_2): Conv2d(16, 16, kernel_size=(5, 5), stride=(1, 1), padding=(2, 2), bias=False)
        (norm_2): BatchNorm2d(16, eps=1e-05, momentum=0.1, affine=True, track_running_stats=True)
        (conv_3): Conv2d(16, 64, kernel_size=(1, 1), stride=(1, 1), bias=False)
        (norm_3): BatchNorm2d(64, eps=1e-05, momentum=0.1, affine=True, track_running_stats=True)
        (relu): LeakyReLU(negative_slope=0.01, inplace=True)
      )
    )
    (layer_4): Sequential(
      (0): EncoderBottleneckBlock(
        (conv_1): Conv2d(64, 32, kernel_size=(1, 1), stride=(1, 1), bias=False)
        (norm_1): BatchNorm2d(32, eps=1e-05, momentum=0.1, affine=True, track_running_stats=True)
        (conv_2): Conv2d(32, 32, kernel_size=(5, 5), stride=(1, 1), padding=(2, 2), bias=False)
        (norm_2): BatchNorm2d(32, eps=1e-05, momentum=0.1, affine=True, track_running_stats=True)
        (conv_3): Conv2d(32, 128, kernel_size=(1, 1), stride=(1, 1), bias=False)
        (norm_3): BatchNorm2d(128, eps=1e-05, momentum=0.1, affine=True, track_running_stats=True)
        (relu): LeakyReLU(negative_slope=0.01, inplace=True)
        (downsample): Sequential(
          (0): Conv2d(64, 128, kernel_size=(5, 5), stride=(1, 1), padding=(2, 2), bias=False)
          (1): BatchNorm2d(128, eps=1e-05, momentum=0.1, affine=True, track_running_stats=True)
        )
      )
      (1): EncoderBottleneckBlock(
        (conv_1): Conv2d(128, 32, kernel_size=(1, 1), stride=(1, 1), bias=False)
        (norm_1): BatchNorm2d(32, eps=1e-05, momentum=0.1, affine=True, track_running_stats=True)
        (conv_2): Conv2d(32, 32, kernel_size=(5, 5), stride=(1, 1), padding=(2, 2), bias=False)
        (norm_2): BatchNorm2d(32, eps=1e-05, momentum=0.1, affine=True, track_running_stats=True)
        (conv_3): Conv2d(32, 128, kernel_size=(1, 1), stride=(1, 1), bias=False)
        (norm_3): BatchNorm2d(128, eps=1e-05, momentum=0.1, affine=True, track_running_stats=True)
        (relu): LeakyReLU(negative_slope=0.01, inplace=True)
      )
    )
    (conv_1x1): Sequential(
      (0): Conv2d(128, 16, kernel_size=(1, 1), stride=(1, 1))
      (1): BatchNorm2d(16, eps=1e-05, momentum=0.1, affine=True, track_running_stats=True)
      (2): LeakyReLU(negative_slope=0.01, inplace=True)
    )
    (fc_mu): Linear(in_features=64, out_features=128, bias=True)
    (fc_var): Linear(in_features=64, out_features=128, bias=True)
  )
  (decoder): Decoder(
    (dense_1): Linear(in_features=128, out_features=64, bias=True)
    (layer_1): Sequential(
      (0): DecoderBottleneckBlock(
        (upsample): Sequential(
          (0): ConvTranspose2d(16, 128, kernel_size=(1, 1), stride=(1, 1))
          (1): BatchNorm2d(128, eps=1e-05, momentum=0.1, affine=True, track_running_stats=True)
        )
        (conv_1): ConvTranspose2d(16, 32, kernel_size=(1, 1), stride=(1, 1))
        (norm_1): BatchNorm2d(32, eps=1e-05, momentum=0.1, affine=True, track_running_stats=True)
        (conv_2): ConvTranspose2d(32, 32, kernel_size=(5, 5), stride=(1, 1), padding=(2, 2))
        (norm_2): BatchNorm2d(32, eps=1e-05, momentum=0.1, affine=True, track_running_stats=True)
        (conv_3): ConvTranspose2d(32, 128, kernel_size=(1, 1), stride=(1, 1))
        (norm_3): BatchNorm2d(128, eps=1e-05, momentum=0.1, affine=True, track_running_stats=True)
        (relu): LeakyReLU(negative_slope=0.01)
      )
      (1): DecoderBottleneckBlock(
        (conv_1): ConvTranspose2d(128, 32, kernel_size=(1, 1), stride=(1, 1))
        (norm_1): BatchNorm2d(32, eps=1e-05, momentum=0.1, affine=True, track_running_stats=True)
        (conv_2): ConvTranspose2d(32, 32, kernel_size=(5, 5), stride=(1, 1), padding=(2, 2))
        (norm_2): BatchNorm2d(32, eps=1e-05, momentum=0.1, affine=True, track_running_stats=True)
        (conv_3): ConvTranspose2d(32, 128, kernel_size=(1, 1), stride=(1, 1))
        (norm_3): BatchNorm2d(128, eps=1e-05, momentum=0.1, affine=True, track_running_stats=True)
        (relu): LeakyReLU(negative_slope=0.01)
      )
    )
    (layer_2): Sequential(
      (0): DecoderBottleneckBlock(
        (upsample): Sequential(
          (0): ConvTranspose2d(128, 128, kernel_size=(1, 1), stride=(2, 2), output_padding=(1, 1))
          (1): BatchNorm2d(128, eps=1e-05, momentum=0.1, affine=True, track_running_stats=True)
        )
        (conv_1): ConvTranspose2d(128, 32, kernel_size=(1, 1), stride=(1, 1))
        (norm_1): BatchNorm2d(32, eps=1e-05, momentum=0.1, affine=True, track_running_stats=True)
        (conv_2): ConvTranspose2d(32, 32, kernel_size=(5, 5), stride=(2, 2), padding=(2, 2), output_padding=(1, 1))
        (norm_2): BatchNorm2d(32, eps=1e-05, momentum=0.1, affine=True, track_running_stats=True)
        (conv_3): ConvTranspose2d(32, 128, kernel_size=(1, 1), stride=(1, 1))
        (norm_3): BatchNorm2d(128, eps=1e-05, momentum=0.1, affine=True, track_running_stats=True)
        (relu): LeakyReLU(negative_slope=0.01)
      )
      (1): DecoderBottleneckBlock(
        (conv_1): ConvTranspose2d(128, 32, kernel_size=(1, 1), stride=(1, 1))
        (norm_1): BatchNorm2d(32, eps=1e-05, momentum=0.1, affine=True, track_running_stats=True)
        (conv_2): ConvTranspose2d(32, 32, kernel_size=(5, 5), stride=(1, 1), padding=(2, 2))
        (norm_2): BatchNorm2d(32, eps=1e-05, momentum=0.1, affine=True, track_running_stats=True)
        (conv_3): ConvTranspose2d(32, 128, kernel_size=(1, 1), stride=(1, 1))
        (norm_3): BatchNorm2d(128, eps=1e-05, momentum=0.1, affine=True, track_running_stats=True)
        (relu): LeakyReLU(negative_slope=0.01)
      )
    )
    (layer_3): Sequential(
      (0): DecoderBottleneckBlock(
        (upsample): Sequential(
          (0): ConvTranspose2d(128, 64, kernel_size=(1, 1), stride=(2, 2), output_padding=(1, 1))
          (1): BatchNorm2d(64, eps=1e-05, momentum=0.1, affine=True, track_running_stats=True)
        )
        (conv_1): ConvTranspose2d(128, 16, kernel_size=(1, 1), stride=(1, 1))
        (norm_1): BatchNorm2d(16, eps=1e-05, momentum=0.1, affine=True, track_running_stats=True)
        (conv_2): ConvTranspose2d(16, 16, kernel_size=(5, 5), stride=(2, 2), padding=(2, 2), output_padding=(1, 1))
        (norm_2): BatchNorm2d(16, eps=1e-05, momentum=0.1, affine=True, track_running_stats=True)
        (conv_3): ConvTranspose2d(16, 64, kernel_size=(1, 1), stride=(1, 1))
        (norm_3): BatchNorm2d(64, eps=1e-05, momentum=0.1, affine=True, track_running_stats=True)
        (relu): LeakyReLU(negative_slope=0.01)
      )
      (1): DecoderBottleneckBlock(
        (conv_1): ConvTranspose2d(64, 16, kernel_size=(1, 1), stride=(1, 1))
        (norm_1): BatchNorm2d(16, eps=1e-05, momentum=0.1, affine=True, track_running_stats=True)
        (conv_2): ConvTranspose2d(16, 16, kernel_size=(5, 5), stride=(1, 1), padding=(2, 2))
        (norm_2): BatchNorm2d(16, eps=1e-05, momentum=0.1, affine=True, track_running_stats=True)
        (conv_3): ConvTranspose2d(16, 64, kernel_size=(1, 1), stride=(1, 1))
        (norm_3): BatchNorm2d(64, eps=1e-05, momentum=0.1, affine=True, track_running_stats=True)
        (relu): LeakyReLU(negative_slope=0.01)
      )
    )
    (layer_4): Sequential(
      (0): DecoderBottleneckBlock(
        (upsample): Sequential(
          (0): ConvTranspose2d(64, 32, kernel_size=(1, 1), stride=(2, 2), output_padding=(1, 1))
          (1): BatchNorm2d(32, eps=1e-05, momentum=0.1, affine=True, track_running_stats=True)
        )
        (conv_1): ConvTranspose2d(64, 8, kernel_size=(1, 1), stride=(1, 1))
        (norm_1): BatchNorm2d(8, eps=1e-05, momentum=0.1, affine=True, track_running_stats=True)
        (conv_2): ConvTranspose2d(8, 8, kernel_size=(5, 5), stride=(2, 2), padding=(2, 2), output_padding=(1, 1))
        (norm_2): BatchNorm2d(8, eps=1e-05, momentum=0.1, affine=True, track_running_stats=True)
        (conv_3): ConvTranspose2d(8, 32, kernel_size=(1, 1), stride=(1, 1))
        (norm_3): BatchNorm2d(32, eps=1e-05, momentum=0.1, affine=True, track_running_stats=True)
        (relu): LeakyReLU(negative_slope=0.01)
      )
      (1): DecoderBottleneckBlock(
        (conv_1): ConvTranspose2d(32, 8, kernel_size=(1, 1), stride=(1, 1))
        (norm_1): BatchNorm2d(8, eps=1e-05, momentum=0.1, affine=True, track_running_stats=True)
        (conv_2): ConvTranspose2d(8, 8, kernel_size=(5, 5), stride=(1, 1), padding=(2, 2))
        (norm_2): BatchNorm2d(8, eps=1e-05, momentum=0.1, affine=True, track_running_stats=True)
        (conv_3): ConvTranspose2d(8, 32, kernel_size=(1, 1), stride=(1, 1))
        (norm_3): BatchNorm2d(32, eps=1e-05, momentum=0.1, affine=True, track_running_stats=True)
        (relu): LeakyReLU(negative_slope=0.01)
      )
    )
    (layer_5): Sequential(
      (0): DecoderBottleneckBlock(
        (upsample): Sequential(
          (0): ConvTranspose2d(32, 32, kernel_size=(1, 1), stride=(2, 2), output_padding=(1, 1))
          (1): BatchNorm2d(32, eps=1e-05, momentum=0.1, affine=True, track_running_stats=True)
        )
        (conv_1): ConvTranspose2d(32, 8, kernel_size=(1, 1), stride=(1, 1))
        (norm_1): BatchNorm2d(8, eps=1e-05, momentum=0.1, affine=True, track_running_stats=True)
        (conv_2): ConvTranspose2d(8, 8, kernel_size=(5, 5), stride=(2, 2), padding=(2, 2), output_padding=(1, 1))
        (norm_2): BatchNorm2d(8, eps=1e-05, momentum=0.1, affine=True, track_running_stats=True)
        (conv_3): ConvTranspose2d(8, 32, kernel_size=(1, 1), stride=(1, 1))
        (norm_3): BatchNorm2d(32, eps=1e-05, momentum=0.1, affine=True, track_running_stats=True)
        (relu): LeakyReLU(negative_slope=0.01)
      )
    )
    (upconv_1): Conv2d(32, 4, kernel_size=(3, 3), stride=(1, 1), padding=(1, 1))
  )
)
Epoch: [1/500], Step: [1/591], Loss: 3203379712.0, KL Divergence: 17.37808609008789, Reconstruction Loss: 3203379712.0
Epoch: [1/500], Step: [119/591], Loss: 1937087616.0, KL Divergence: 98.94068908691406, Reconstruction Loss: 1937087488.0
Epoch: [1/500], Step: [237/591], Loss: 1621757056.0, KL Divergence: 165.03567504882812, Reconstruction Loss: 1621756928.0
…
